…
  DECAY_TIME: 0.9
  LOCAL_IOU_ONLY: false
  LOCAL_NO_IOU: false
  LOCAL_TRACK: false
  MAX_CENTER_DIST: 1.0
  MIN_TRACK_LEN: 5
  NOT_MULT_THRESH: true
  OVERLAP_THRESH: 0.2
  WITH_IOU: true
VIS_PERIOD: 0
VIS_THRESH: 0.3

[32m[07/25 10:49:04 detectron2]: [0mFull config saved to /lfs_ssd/slurm_tmp/briannlz/260163/GTR/output/GTR_MOT/GTR_MOTFull_FPN/config.yaml
[32m[07/25 10:49:04 d2.utils.env]: [0mUsing a generated random seed 4722242
Loading pretrained DLA!
[32m[07/25 10:49:07 detectron2]: [0mModel:
GTRRCNN(
  (backbone): BiFPN(
    (bottom_up): DLA(
      (base_layer): Sequential(
        (0): Conv2d(3, 16, kernel_size=(7, 7), stride=(1, 1), padding=(3, 3), bias=False)
        (1): BatchNorm2d(16, eps=1e-05, momentum=0.1, affine=True, track_running_stats=True)
        (2): ReLU(inplace=True)
      )
      (level0): Sequential(
        (0): Conv2d(16, 16, kernel_size=(3, 3), stride=(1, 1), padding=(1, 1), bias=False)
        (1): BatchNorm2d(16, eps=1e-05, momentum=0.1, affine=True, track_running_stats=True)
        (2): ReLU(inplace=True)
      )
      (level1): Sequential(
        (0): Conv2d(16, 32, kernel_size=(3, 3), stride=(2, 2), padding=(1, 1), bias=False)
        (1): BatchNorm2d(32, eps=1e-05, momentum=0.1, affine=True, track_running_stats=True)
        (2): ReLU(inplace=True)
      )
      (level2): Tree(
        (tree1): BasicBlock(
          (conv1): Conv2d(32, 64, kernel_size=(3, 3), stride=(2, 2), padding=(1, 1), bias=False)
          (bn1): BatchNorm2d(64, eps=1e-05, momentum=0.1, affine=True, track_running_stats=True)
          (relu): ReLU(inplace=True)
          (conv2): Conv2d(64, 64, kernel_size=(3, 3), stride=(1, 1), padding=(1, 1), bias=False)
          (bn2): BatchNorm2d(64, eps=1e-05, momentum=0.1, affine=True, track_running_stats=True)
        )
        (tree2): BasicBlock(
          (conv1): Conv2d(64, 64, kernel_size=(3, 3), stride=(1, 1), padding=(1, 1), bias=False)
          (bn1): BatchNorm2d(64, eps=1e-05, momentum=0.1, affine=True, track_running_stats=True)
          (relu): ReLU(inplace=True)
          (conv2): Conv2d(64, 64, kernel_size=(3, 3), stride=(1, 1), padding=(1, 1), bias=False)
          (bn2): BatchNorm2d(64, eps=1e-05, momentum=0.1, affine=True, track_running_stats=True)
        )
        (root): Root(
          (conv): Conv2d(128, 64, kernel_size=(1, 1), stride=(1, 1), bias=False)
          (bn): BatchNorm2d(64, eps=1e-05, momentum=0.1, affine=True, track_running_stats=True)
          (relu): ReLU(inplace=True)
        )
        (downsample): MaxPool2d(kernel_size=2, stride=2, padding=0, dilation=1, ceil_mode=False)
        (project): Sequential(
          (0): Conv2d(32, 64, kernel_size=(1, 1), stride=(1, 1), bias=False)
          (1): BatchNorm2d(64, eps=1e-05, momentum=0.1, affine=True, track_running_stats=True)
        )
      )
      (level3): Tree(
        (tree1): Tree(
          (tree1): BasicBlock(
            (conv1): Conv2d(64, 128, kernel_size=(3, 3), stride=(2, 2), padding=(1, 1), bias=False)
            (bn1): BatchNorm2d(128, eps=1e-05, momentum=0.1, affine=True, track_running_stats=True)
            (relu): ReLU(inplace=True)
            (conv2): Conv2d(128, 128, kernel_size=(3, 3), stride=(1, 1), padding=(1, 1), bias=False)
            (bn2): BatchNorm2d(128, eps=1e-05, momentum=0.1, affine=True, track_running_stats=True)
          )
          (tree2): BasicBlock(
            (conv1): Conv2d(128, 128, kernel_size=(3, 3), stride=(1, 1), padding=(1, 1), bias=False)
            (bn1): BatchNorm2d(128, eps=1e-05, momentum=0.1, affine=True, track_running_stats=True)
            (relu): ReLU(inplace=True)
            (conv2): Conv2d(128, 128, kernel_size=(3, 3), stride=(1, 1), padding=(1, 1), bias=False)
            (bn2): BatchNorm2d(128, eps=1e-05, momentum=0.1, affine=True, track_running_stats=True)
          )
          (root): Root(
            (conv): Conv2d(256, 128, kernel_size=(1, 1), stride=(1, 1), bias=False)
            (bn): BatchNorm2d(128, eps=1e-05, momentum=0.1, affine=True, track_running_stats=True)
            (relu): ReLU(inplace=True)
          )
          (downsample): MaxPool2d(kernel_size=2, stride=2, padding=0, dilation=1, ceil_mode=False)
          (project): Sequential(
            (0): Conv2d(64, 128, kernel_size=(1, 1), stride=(1, 1), bias=False)
            (1): BatchNorm2d(128, eps=1e-05, momentum=0.1, affine=True, track_running_stats=True)
          )
        )
        (tree2): Tree(
          (tree1): BasicBlock(
            (conv1): Conv2d(128, 128, kernel_size=(3, 3), stride=(1, 1), padding=(1, 1), bias=False)
            (bn1): BatchNorm2d(128, eps=1e-05, momentum=0.1, affine=True, track_running_stats=True)
            (relu): ReLU(inplace=True)
            (conv2): Conv2d(128, 128, kernel_size=(3, 3), stride=(1, 1), padding=(1, 1), bias=False)
            (bn2): BatchNorm2d(128, eps=1e-05, momentum=0.1, affine=True, track_running_stats=True)
          )
          (tree2): BasicBlock(
            (conv1): Conv2d(128, 128, kernel_size=(3, 3), stride=(1, 1), padding=(1, 1), bias=False)
            (bn1): BatchNorm2d(128, eps=1e-05, momentum=0.1, affine=True, track_running_stats=True)
            (relu): ReLU(inplace=True)
            (conv2): Conv2d(128, 128, kernel_size=(3, 3), stride=(1, 1), padding=(1, 1), bias=False)
            (bn2): BatchNorm2d(128, eps=1e-05, momentum=0.1, affine=True, track_running_stats=True)
          )
          (root): Root(
            (conv): Conv2d(448, 128, kernel_size=(1, 1), stride=(1, 1), bias=False)
            (bn): BatchNorm2d(128, eps=1e-05, momentum=0.1, affine=True, track_running_stats=True)
            (relu): ReLU(inplace=True)
          )
        )
        (downsample): MaxPool2d(kernel_size=2, stride=2, padding=0, dilation=1, ceil_mode=False)
        (project): Sequential(
          (0): Conv2d(64, 128, kernel_size=(1, 1), stride=(1, 1), bias=False)
          (1): BatchNorm2d(128, eps=1e-05, momentum=0.1, affine=True, track_running_stats=True)
        )
      )
      (level4): Tree(
        (tree1): Tree(
          (tree1): BasicBlock(
            (conv1): Conv2d(128, 256, kernel_size=(3, 3), stride=(2, 2), padding=(1, 1), bias=False)
            (bn1): BatchNorm2d(256, eps=1e-05, momentum=0.1, affine=True, track_running_stats=True)
            (relu): ReLU(inplace=True)
            (conv2): Conv2d(256, 256, kernel_size=(3, 3), stride=(1, 1), padding=(1, 1), bias=False)
            (bn2): BatchNorm2d(256, eps=1e-05, momentum=0.1, affine=True, track_running_stats=True)
          )
          (tree2): BasicBlock(
            (conv1): Conv2d(256, 256, kernel_size=(3, 3), stride=(1, 1), padding=(1, 1), bias=False)
            (bn1): BatchNorm2d(256, eps=1e-05, momentum=0.1, affine=True, track_running_stats=True)
            (relu): ReLU(inplace=True)
            (conv2): Conv2d(256, 256, kernel_size=(3, 3), stride=(1, 1), padding=(1, 1), bias=False)
            (bn2): BatchNorm2d(256, eps=1e-05, momentum=0.1, affine=True, track_running_stats=True)
          )
          (root): Root(
            (conv): Conv2d(512, 256, kernel_size=(1, 1), stride=(1, 1), bias=False)
            (bn): BatchNorm2d(256, eps=1e-05, momentum=0.1, affine=True, track_running_stats=True)
            (relu): ReLU(inplace=True)
          )
          (downsample): MaxPool2d(kernel_size=2, stride=2, padding=0, dilation=1, ceil_mode=False)
          (project): Sequential(
            (0): Conv2d(128, 256, kernel_size=(1, 1), stride=(1, 1), bias=False)
            (1): BatchNorm2d(256, eps=1e-05, momentum=0.1, affine=True, track_running_stats=True)
          )
        )
        (tree2): Tree(
          (tree1): BasicBlock(
            (conv1): Conv2d(256, 256, kernel_size=(3, 3), stride=(1, 1), padding=(1, 1), bias=False)
            (bn1): BatchNorm2d(256, eps=1e-05, momentum=0.1, affine=True, track_running_stats=True)
            (relu): ReLU(inplace=True)
            (conv2): Conv2d(256, 256, kernel_size=(3, 3), stride=(1, 1), padding=(1, 1), bias=False)
            (bn2): BatchNorm2d(256, eps=1e-05, momentum=0.1, affine=True, track_running_stats=True)
          )
          (tree2): BasicBlock(
            (conv1): Conv2d(256, 256, kernel_size=(3, 3), stride=(1, 1), padding=(1, 1), bias=False)
            (bn1): BatchNorm2d(256, eps=1e-05, momentum=0.1, affine=True, track_running_stats=True)
            (relu): ReLU(inplace=True)
            (conv2): Conv2d(256, 256, kernel_size=(3, 3), stride=(1, 1), padding=(1, 1), bias=False)
            (bn2): BatchNorm2d(256, eps=1e-05, momentum=0.1, affine=True, track_running_stats=True)
          )
          (root): Root(
            (conv): Conv2d(896, 256, kernel_size=(1, 1), stride=(1, 1), bias=False)
            (bn): BatchNorm2d(256, eps=1e-05, momentum=0.1, affine=True, track_running_stats=True)
            (relu): ReLU(inplace=True)
          )
        )
        (downsample): MaxPool2d(kernel_size=2, stride=2, padding=0, dilation=1, ceil_mode=False)
        (project): Sequential(
          (0): Conv2d(128, 256, kernel_size=(1, 1), stride=(1, 1), bias=False)
          (1): BatchNorm2d(256, eps=1e-05, momentum=0.1, affine=True, track_running_stats=True)
        )
      )
      (level5): Tree(
        (tree1): BasicBlock(
          (conv1): Conv2d(256, 512, kernel_size=(3, 3), stride=(2, 2), padding=(1, 1), bias=False)
          (bn1): BatchNorm2d(512, eps=1e-05, momentum=0.1, affine=True, track_running_stats=True)
          (relu): ReLU(inplace=True)
          (conv2): Conv2d(512, 512, kernel_size=(3, 3), stride=(1, 1), padding=(1, 1), bias=False)
          (bn2): BatchNorm2d(512, eps=1e-05, momentum=0.1, affine=True, track_running_stats=True)
        )
        (tree2): BasicBlock(
          (conv1): Conv2d(512, 512, kernel_size=(3, 3), stride=(1, 1), padding=(1, 1), bias=False)
          (bn1): BatchNorm2d(512, eps=1e-05, momentum=0.1, affine=True, track_running_stats=True)
          (relu): ReLU(inplace=True)
          (conv2): Conv2d(512, 512, kernel_size=(3, 3), stride=(1, 1), padding=(1, 1), bias=False)
          (bn2): BatchNorm2d(512, eps=1e-05, momentum=0.1, affine=True, track_running_stats=True)
        )
        (root): Root(
          (conv): Conv2d(1280, 512, kernel_size=(1, 1), stride=(1, 1), bias=False)
          (bn): BatchNorm2d(512, eps=1e-05, momentum=0.1, affine=True, track_running_stats=True)
          (relu): ReLU(inplace=True)
        )
        (downsample): MaxPool2d(kernel_size=2, stride=2, padding=0, dilation=1, ceil_mode=False)
        (project): Sequential(
          (0): Conv2d(256, 512, kernel_size=(1, 1), stride=(1, 1), bias=False)
          (1): BatchNorm2d(512, eps=1e-05, momentum=0.1, affine=True, track_running_stats=True)
        )
      )
    )
    (resample): SequentialAppendLast(
      (3): ResampleFeatureMap(
        (conv): ConvBnAct2d(
          (conv): Conv2d(512, 160, kernel_size=(1, 1), stride=(1, 1), bias=False)
          (bn): GroupNorm(32, 160, eps=1e-05, affine=True)
        )
        (downsample): MaxPool2d(kernel_size=2, stride=2, padding=0, dilation=1, ceil_mode=False)
      )
      (4): ResampleFeatureMap(
        (downsample): MaxPool2d(kernel_size=2, stride=2, padding=0, dilation=1, ceil_mode=False)
      )
    )
    (cell): Sequential(
      (0): BiFpnLayer(
        (fnode): SequentialAppend(
          (0): Sequential(
            (combine): FpnCombine(
              (resample): ModuleDict(
                (3): ResampleFeatureMap()
                (4): ResampleFeatureMap(
                  (upsample): UpsamplingNearest2d(scale_factor=2.0, mode=nearest)
                )
              )
            )
            (after_combine): Sequential(
              (act): Swish()
              (conv): ConvBnAct2d(
                (conv): Conv2d(160, 160, kernel_size=(3, 3), stride=(1, 1), padding=(1, 1), bias=False)
                (bn): GroupNorm(32, 160, eps=1e-05, affine=True)
              )
            )
          )
          (1): Sequential(
            (combine): FpnCombine(
              (resample): ModuleDict(
                (2): ResampleFeatureMap(
                  (conv): ConvBnAct2d(
                    (conv): Conv2d(512, 160, kernel_size=(1, 1), stride=(1, 1), bias=False)
                    (bn): GroupNorm(32, 160, eps=1e-05, affine=True)
                  )
                )
                (5): ResampleFeatureMap(
                  (upsample): UpsamplingNearest2d(scale_factor=2.0, mode=nearest)
                )
              )
            )
            (after_combine): Sequential(
              (act): Swish()
              (conv): ConvBnAct2d(
                (conv): Conv2d(160, 160, kernel_size=(3, 3), stride=(1, 1), padding=(1, 1), bias=False)
                (bn): GroupNorm(32, 160, eps=1e-05, affine=True)
              )
            )
          )
          (2): Sequential(
            (combine): FpnCombine(
              (resample): ModuleDict(
                (1): ResampleFeatureMap(
                  (conv): ConvBnAct2d(
                    (conv): Conv2d(256, 160, kernel_size=(1, 1), stride=(1, 1), bias=False)
                    (bn): GroupNorm(32, 160, eps=1e-05, affine=True)
                  )
                )
                (6): ResampleFeatureMap(
                  (upsample): UpsamplingNearest2d(scale_factor=2.0, mode=nearest)
                )
              )
            )
            (after_combine): Sequential(
              (act): Swish()
              (conv): ConvBnAct2d(
                (conv): Conv2d(160, 160, kernel_size=(3, 3), stride=(1, 1), padding=(1, 1), bias=False)
                (bn): GroupNorm(32, 160, eps=1e-05, affine=True)
              )
            )
          )
          (3): Sequential(
            (combine): FpnCombine(
              (resample): ModuleDict(
                (0): ResampleFeatureMap(
                  (conv): ConvBnAct2d(
                    (conv): Conv2d(128, 160, kernel_size=(1, 1), stride=(1, 1), bias=False)
                    (bn): GroupNorm(32, 160, eps=1e-05, affine=True)
                  )
                )
                (7): ResampleFeatureMap(
                  (upsample): UpsamplingNearest2d(scale_factor=2.0, mode=nearest)
                )
              )
            )
            (after_combine): Sequential(
              (act): Swish()
              (conv): ConvBnAct2d(
                (conv): Conv2d(160, 160, kernel_size=(3, 3), stride=(1, 1), padding=(1, 1), bias=False)
                (bn): GroupNorm(32, 160, eps=1e-05, affine=True)
              )
            )
          )
          (4): Sequential(
            (combine): FpnCombine(
              (resample): ModuleDict(
                (1): ResampleFeatureMap(
                  (conv): ConvBnAct2d(
                    (conv): Conv2d(256, 160, kernel_size=(1, 1), stride=(1, 1), bias=False)
                    (bn): GroupNorm(32, 160, eps=1e-05, affine=True)
                  )
                )
                (7): ResampleFeatureMap()
                (8): ResampleFeatureMap(
                  (downsample): MaxPool2d(kernel_size=2, stride=2, padding=0, dilation=1, ceil_mode=False)
                )
              )
            )
            (after_combine): Sequential(
              (act): Swish()
              (conv): ConvBnAct2d(
                (conv): Conv2d(160, 160, kernel_size=(3, 3), stride=(1, 1), padding=(1, 1), bias=False)
                (bn): GroupNorm(32, 160, eps=1e-05, affine=True)
              )
            )
          )
          (5): Sequential(
            (combine): FpnCombine(
              (resample): ModuleDict(
                (2): ResampleFeatureMap(
                  (conv): ConvBnAct2d(
                    (conv): Conv2d(512, 160, kernel_size=(1, 1), stride=(1, 1), bias=False)
                    (bn): GroupNorm(32, 160, eps=1e-05, affine=True)
                  )
                )
                (6): ResampleFeatureMap()
                (9): ResampleFeatureMap(
                  (downsample): MaxPool2d(kernel_size=2, stride=2, padding=0, dilation=1, ceil_mode=False)
                )
              )
            )
            (after_combine): Sequential(
              (act): Swish()
              (conv): ConvBnAct2d(
                (conv): Conv2d(160, 160, kernel_size=(3, 3), stride=(1, 1), padding=(1, 1), bias=False)
                (bn): GroupNorm(32, 160, eps=1e-05, affine=True)
              )
            )
          )
          (6): Sequential(
            (combine): FpnCombine(
              (resample): ModuleDict(
                (3): ResampleFeatureMap()
                (5): ResampleFeatureMap()
                (10): ResampleFeatureMap(
                  (downsample): MaxPool2d(kernel_size=2, stride=2, padding=0, dilation=1, ceil_mode=False)
                )
              )
            )
            (after_combine): Sequential(
              (act): Swish()
              (conv): ConvBnAct2d(
                (conv): Conv2d(160, 160, kernel_size=(3, 3), stride=(1, 1), padding=(1, 1), bias=False)
                (bn): GroupNorm(32, 160, eps=1e-05, affine=True)
              )
            )
          )
          (7): Sequential(
            (combine): FpnCombine(
              (resample): ModuleDict(
                (4): ResampleFeatureMap()
                (11): ResampleFeatureMap(
                  (downsample): MaxPool2d(kernel_size=2, stride=2, padding=0, dilation=1, ceil_mode=False)
                )
              )
            )
            (after_combine): Sequential(
              (act): Swish()
              (conv): ConvBnAct2d(
                (conv): Conv2d(160, 160, kernel_size=(3, 3), stride=(1, 1), padding=(1, 1), bias=False)
                (bn): GroupNorm(32, 160, eps=1e-05, affine=True)
              )
            )
          )
        )
      )
      (1): BiFpnLayer(
        (fnode): SequentialAppend(
          (0): Sequential(
            (combine): FpnCombine(
              (resample): ModuleDict(
                (3): ResampleFeatureMap()
                (4): ResampleFeatureMap(
                  (upsample): UpsamplingNearest2d(scale_factor=2.0, mode=nearest)
                )
              )
            )
            (after_combine): Sequential(
              (act): Swish()
              (conv): ConvBnAct2d(
                (conv): Conv2d(160, 160, kernel_size=(3, 3), stride=(1, 1), padding=(1, 1), bias=False)
                (bn): GroupNorm(32, 160, eps=1e-05, affine=True)
              )
            )
          )
          (1): Sequential(
            (combine): FpnCombine(
              (resample): ModuleDict(
                (2): ResampleFeatureMap()
                (5): ResampleFeatureMap(
                  (upsample): UpsamplingNearest2d(scale_factor=2.0, mode=nearest)
                )
              )
            )
            (after_combine): Sequential(
              (act): Swish()
              (conv): ConvBnAct2d(
                (conv): Conv2d(160, 160, kernel_size=(3, 3), stride=(1, 1), padding=(1, 1), bias=False)
                (bn): GroupNorm(32, 160, eps=1e-05, affine=True)
              )
            )
          )
          (2): Sequential(
            (combine): FpnCombine(
              (resample): ModuleDict(
                (1): ResampleFeatureMap()
                (6): ResampleFeatureMap(
                  (upsample): UpsamplingNearest2d(scale_factor=2.0, mode=nearest)
                )
              )
            )
            (after_combine): Sequential(
              (act): Swish()
              (conv): ConvBnAct2d(
                (conv): Conv2d(160, 160, kernel_size=(3, 3), stride=(1, 1), padding=(1, 1), bias=False)
                (bn): GroupNorm(32, 160, eps=1e-05, affine=True)
              )
            )
          )
          (3): Sequential(
            (combine): FpnCombine(
              (resample): ModuleDict(
                (0): ResampleFeatureMap()
                (7): ResampleFeatureMap(
                  (upsample): UpsamplingNearest2d(scale_factor=2.0, mode=nearest)
                )
              )
            )
            (after_combine): Sequential(
              (act): Swish()
              (conv): ConvBnAct2d(
                (conv): Conv2d(160, 160, kernel_size=(3, 3), stride=(1, 1), padding=(1, 1), bias=False)
                (bn): GroupNorm(32, 160, eps=1e-05, affine=True)
              )
            )
          )
          (4): Sequential(
            (combine): FpnCombine(
              (resample): ModuleDict(
                (1): ResampleFeatureMap()
                (7): ResampleFeatureMap()
                (8): ResampleFeatureMap(
                  (downsample): MaxPool2d(kernel_size=2, stride=2, padding=0, dilation=1, ceil_mode=False)
                )
              )
            )
            (after_combine): Sequential(
              (act): Swish()
              (conv): ConvBnAct2d(
                (conv): Conv2d(160, 160, kernel_size=(3, 3), stride=(1, 1), padding=(1, 1), bias=False)
                (bn): GroupNorm(32, 160, eps=1e-05, affine=True)
              )
            )
          )
          (5): Sequential(
            (combine): FpnCombine(
              (resample): ModuleDict(
                (2): ResampleFeatureMap()
                (6): ResampleFeatureMap()
                (9): ResampleFeatureMap(
                  (downsample): MaxPool2d(kernel_size=2, stride=2, padding=0, dilation=1, ceil_mode=False)
                )
              )
            )
            (after_combine): Sequential(
              (act): Swish()
              (conv): ConvBnAct2d(
                (conv): Conv2d(160, 160, kernel_size=(3, 3), stride=(1, 1), padding=(1, 1), bias=False)
                (bn): GroupNorm(32, 160, eps=1e-05, affine=True)
              )
            )
          )
          (6): Sequential(
            (combine): FpnCombine(
              (resample): ModuleDict(
                (3): ResampleFeatureMap()
                (5): ResampleFeatureMap()
                (10): ResampleFeatureMap(
                  (downsample): MaxPool2d(kernel_size=2, stride=2, padding=0, dilation=1, ceil_mode=False)
                )
              )
            )
            (after_combine): Sequential(
              (act): Swish()
              (conv): ConvBnAct2d(
                (conv): Conv2d(160, 160, kernel_size=(3, 3), stride=(1, 1), padding=(1, 1), bias=False)
                (bn): GroupNorm(32, 160, eps=1e-05, affine=True)
              )
            )
          )
          (7): Sequential(
            (combine): FpnCombine(
              (resample): ModuleDict(
                (4): ResampleFeatureMap()
                (11): ResampleFeatureMap(
                  (downsample): MaxPool2d(kernel_size=2, stride=2, padding=0, dilation=1, ceil_mode=False)
                )
              )
            )
            (after_combine): Sequential(
              (act): Swish()
              (conv): ConvBnAct2d(
                (conv): Conv2d(160, 160, kernel_size=(3, 3), stride=(1, 1), padding=(1, 1), bias=False)
                (bn): GroupNorm(32, 160, eps=1e-05, affine=True)
              )
            )
          )
        )
      )
      (2): BiFpnLayer(
        (fnode): SequentialAppend(
          (0): Sequential(
            (combine): FpnCombine(
              (resample): ModuleDict(
                (3): ResampleFeatureMap()
                (4): ResampleFeatureMap(
                  (upsample): UpsamplingNearest2d(scale_factor=2.0, mode=nearest)
                )
              )
            )
            (after_combine): Sequential(
              (act): Swish()
              (conv): ConvBnAct2d(
                (conv): Conv2d(160, 160, kernel_size=(3, 3), stride=(1, 1), padding=(1, 1), bias=False)
                (bn): GroupNorm(32, 160, eps=1e-05, affine=True)
              )
            )
          )
          (1): Sequential(
            (combine): FpnCombine(
              (resample): ModuleDict(
                (2): ResampleFeatureMap()
                (5): ResampleFeatureMap(
                  (upsample): UpsamplingNearest2d(scale_factor=2.0, mode=nearest)
                )
              )
            )
            (after_combine): Sequential(
              (act): Swish()
              (conv): ConvBnAct2d(
                (conv): Conv2d(160, 160, kernel_size=(3, 3), stride=(1, 1), padding=(1, 1), bias=False)
                (bn): GroupNorm(32, 160, eps=1e-05, affine=True)
              )
            )
          )
          (2): Sequential(
            (combine): FpnCombine(
              (resample): ModuleDict(
                (1): ResampleFeatureMap()
                (6): ResampleFeatureMap(
                  (upsample): UpsamplingNearest2d(scale_factor=2.0, mode=nearest)
                )
              )
            )
            (after_combine): Sequential(
              (act): Swish()
              (conv): ConvBnAct2d(
                (conv): Conv2d(160, 160, kernel_size=(3, 3), stride=(1, 1), padding=(1, 1), bias=False)
                (bn): GroupNorm(32, 160, eps=1e-05, affine=True)
              )
            )
          )
          (3): Sequential(
            (combine): FpnCombine(
              (resample): ModuleDict(
                (0): ResampleFeatureMap()
                (7): ResampleFeatureMap(
                  (upsample): UpsamplingNearest2d(scale_factor=2.0, mode=nearest)
                )
              )
            )
            (after_combine): Sequential(
              (act): Swish()
              (conv): ConvBnAct2d(
                (conv): Conv2d(160, 160, kernel_size=(3, 3), stride=(1, 1), padding=(1, 1), bias=False)
                (bn): GroupNorm(32, 160, eps=1e-05, affine=True)
              )
            )
          )
          (4): Sequential(
            (combine): FpnCombine(
              (resample): ModuleDict(
                (1): ResampleFeatureMap()
                (7): ResampleFeatureMap()
                (8): ResampleFeatureMap(
                  (downsample): MaxPool2d(kernel_size=2, stride=2, padding=0, dilation=1, ceil_mode=False)
                )
              )
            )
            (after_combine): Sequential(
              (act): Swish()
              (conv): ConvBnAct2d(
                (conv): Conv2d(160, 160, kernel_size=(3, 3), stride=(1, 1), padding=(1, 1), bias=False)
                (bn): GroupNorm(32, 160, eps=1e-05, affine=True)
              )
            )
          )
          (5): Sequential(
            (combine): FpnCombine(
              (resample): ModuleDict(
                (2): ResampleFeatureMap()
                (6): ResampleFeatureMap()
                (9): ResampleFeatureMap(
                  (downsample): MaxPool2d(kernel_size=2, stride=2, padding=0, dilation=1, ceil_mode=False)
                )
              )
            )
            (after_combine): Sequential(
              (act): Swish()
              (conv): ConvBnAct2d(
                (conv): Conv2d(160, 160, kernel_size=(3, 3), stride=(1, 1), padding=(1, 1), bias=False)
                (bn): GroupNorm(32, 160, eps=1e-05, affine=True)
              )
            )
          )
          (6): Sequential(
            (combine): FpnCombine(
              (resample): ModuleDict(
                (3): ResampleFeatureMap()
                (5): ResampleFeatureMap()
                (10): ResampleFeatureMap(
                  (downsample): MaxPool2d(kernel_size=2, stride=2, padding=0, dilation=1, ceil_mode=False)
                )
              )
            )
            (after_combine): Sequential(
              (act): Swish()
              (conv): ConvBnAct2d(
                (conv): Conv2d(160, 160, kernel_size=(3, 3), stride=(1, 1), padding=(1, 1), bias=False)
                (bn): GroupNorm(32, 160, eps=1e-05, affine=True)
              )
            )
          )
          (7): Sequential(
            (combine): FpnCombine(
              (resample): ModuleDict(
                (4): ResampleFeatureMap()
                (11): ResampleFeatureMap(
                  (downsample): MaxPool2d(kernel_size=2, stride=2, padding=0, dilation=1, ceil_mode=False)
                )
              )
            )
            (after_combine): Sequential(
              (act): Swish()
              (conv): ConvBnAct2d(
                (conv): Conv2d(160, 160, kernel_size=(3, 3), stride=(1, 1), padding=(1, 1), bias=False)
                (bn): GroupNorm(32, 160, eps=1e-05, affine=True)
              )
            )
          )
        )
      )
    )
  )
  (proposal_generator): CenterNet(
    (iou_loss): IOULoss()
    (centernet_head): CenterNetHead(
      (cls_tower): Sequential()
      (bbox_tower): Sequential(
        (0): Conv2d(160, 160, kernel_size=(3, 3), stride=(1, 1), padding=(1, 1))
        (1): GroupNorm(32, 160, eps=1e-05, affine=True)
        (2): ReLU()
        (3): Conv2d(160, 160, kernel_size=(3, 3), stride=(1, 1), padding=(1, 1))
        (4): GroupNorm(32, 160, eps=1e-05, affine=True)
        (5): ReLU()
        (6): Conv2d(160, 160, kernel_size=(3, 3), stride=(1, 1), padding=(1, 1))
        (7): GroupNorm(32, 160, eps=1e-05, affine=True)
        (8): ReLU()
        (9): DFConv2d(
          (offset): Conv2d(160, 27, kernel_size=(3, 3), stride=(1, 1), padding=(1, 1))
          (conv): ModulatedDeformConv(in_channels=160, out_channels=160, kernel_size=(3, 3), stride=1, padding=1, dilation=1, groups=1, deformable_groups=1, bias=True)
        )
        (10): GroupNorm(32, 160, eps=1e-05, affine=True)
        (11): ReLU()
      )
      (share_tower): Sequential()
      (bbox_pred): Conv2d(160, 4, kernel_size=(3, 3), stride=(1, 1), padding=(1, 1))
      (scales): ModuleList(
        (0): Scale()
        (1): Scale()
        (2): Scale()
        (3): Scale()
        (4): Scale()
      )
      (agn_hm): Conv2d(160, 1, kernel_size=(3, 3), stride=(1, 1), padding=(1, 1))
    )
  )
  (roi_heads): GTRROIHeads(
    (asso_pooler): ROIPooler(
      (level_poolers): ModuleList(
        (0): ROIAlign(output_size=(7, 7), spatial_scale=0.125, sampling_ratio=0, aligned=True)
      )
    )
    (asso_head): FCHead(
      (fc1): Linear(in_features=7840, out_features=1024, bias=True)
      (fc2): Linear(in_features=1024, out_features=1024, bias=True)
    )
    (asso_predictor): ATTWeightHead(
      (q_proj): MLP()
      (k_proj): MLP()
    )
    (transformer): Transformer(
      (encoder): TransformerEncoder(
        (layers): ModuleList(
          (0): TransformerEncoderLayer(
            (self_attn): MultiheadAttention(
              (out_proj): NonDynamicallyQuantizableLinear(in_features=1024, out_features=1024, bias=True)
            )
            (linear1): Linear(in_features=1024, out_features=1024, bias=True)
            (dropout): Dropout(p=0.1, inplace=False)
            (linear2): Linear(in_features=1024, out_features=1024, bias=True)
            (norm1): Identity()
            (norm2): Identity()
            (dropout1): Dropout(p=0.1, inplace=False)
            (dropout2): Dropout(p=0.1, inplace=False)
          )
        )
      )
      (decoder): TransformerDecoder(
        (layers): ModuleList(
          (0): TransformerDecoderLayer(
            (multihead_attn): MultiheadAttention(
              (out_proj): NonDynamicallyQuantizableLinear(in_features=1024, out_features=1024, bias=True)
            )
            (linear1): Linear(in_features=1024, out_features=1024, bias=True)
            (dropout): Dropout(p=0.1, inplace=False)
            (linear2): Linear(in_features=1024, out_features=1024, bias=True)
            (norm1): Identity()
            (norm2): Identity()
            (norm3): Identity()
            (dropout1): Dropout(p=0.1, inplace=False)
            (dropout2): Dropout(p=0.1, inplace=False)
            (dropout3): Dropout(p=0.1, inplace=False)
          )
        )
        (norm): Identity()
      )
    )
  )
)
[32m[07/25 10:49:07 fvcore.common.checkpoint]: [0m[Checkpointer] Loading from /lfs_ssd/slurm_tmp/briannlz/260163/GTR/models/CH_FPN_1x.pth ...
…
